model.pth (torch, 436725 bytes, 16 tensors)

encoder.0.weight f4 [150, 87]
00000000: 6635 b9bd d957 c0bd 4ce3 3b3d 5bcd d3bd
00000010: 8dd5 aabd d058 273d c5a1 89bd dab5 abbd
00000020: 5abc 243d 19b2 a8bd b596 8fbd b6f5 463d
00000030: 07f1 42bd 15af 82bd c088 293d d1a1 cabd
00000040: 74e7 aabd f2a2 543d 0d05 abbd 9e32 abbd
00000050: 3812 423d 50cd 8ebd 4871 eebd cf2e 753d
00000060: 506c dabb c8c3 62bd 541d 963d 6a63 19bd
00000070: 8f8f d8bd d15c 48bb 6c6f 5bbd e88c 11bd
00000080: 0ba4 003e cf8d 533d 43ad 5dbd ece5 01bd
00000090: 9230 adbd 35ed a4bd db16 673e ef2b 653d
000000a0: cf06 42bd b986 8cbc f57e c2bd 9241 c8bd
000000b0: 4f16 523e a2bd 8d3d b69e 49bd bc29 f2bc
000000c0: 1195 c6bd 1cc8 b3bd 99cc 643e ae49 a73d
000000d0: e6d4 8bbd 68cf 10bd 6607 d2bd 8bba b4bd
000000e0: a71e 723e 9c2c d83d b326 3fbe 3bc2 9c3d
000000f0: 0856 473e 9639 3ebd d5d8 93bd 13d9 14bd
00000100: 9897 87be 0211 a13d 41cd 673e f2a4 a73e
00000110: c7af 463e 1c78 9abd 56f2 87be 4d48 133e
00000120: 3d23 103e b4c3 c73e 4a72 6bbd 7298 a9bd
00000130: 2fa8 86be b564 103e 2f4f f83d c95f ca3e
00000140: 9ed7 a8bd cb91 febd 87ce 94be f6e9 453e
00000150: 80ec 133e 8992 c13e d32f 25be 2ffd 0cbe
00000160: 1201 35bd fc3b b9bd 7212 75bd 2043 91bd
00000170: baa7 8bbd 76c1 10be f706 64bd 86ef 3cbd
00000180: 232c b03b 75ec 8abd 2d2e 39bd 081f 96bd
00000190: 9dae 8fbc d06a e83d 3e08 c4bd dd6b 35bb
000001a0: 7255 aabd abb2 08be 38c5 2c3b 71bf 36bd
000001b0: 7a48 443e 8061 5abd 9415 13bc 8424 96bc
000001c0: 6067 2b3e 51bf 023e 021f 653f 85f6 513d
000001d0: b849 98bd 81ea 793e 626f 343e 4460 0d3e
000001e0: 13d0 28bd 259f 66bc af95 2d3d d827 003d
000001f0: 23ea 92bd 175e 81bb f39d 2bbe 3562 693c
00000200: b99a 0f3d 02b1 183c 263f 11bd fbf7 bf3b
00000210: f6fa 8abe 512e efbc 28ea c63d 113a 233c
00000220: 999a b5bb 16f2 6bbc 6d4c 74be 97a3 a9bc
00000230: 8e0c 923d 1f08 0d3c 29c9 5dbc dcb1 42bc
00000240: 88f7 dcbd fc4f d93c 3a95 373b fa10 8dbe
00000250: b854 103e 7137 ddbb 8920 a43e 5963 15be
00000260: 286f 363e cbd1 b73e a155 5d3d b8c1 95bd
00000270: fa86 b4bd b372 473d 38f9 8aba c6f4 b0bd
00000280: 0bc0 c5bd c327 9b3c b2a3 cfbd 40c9 303d
00000290: bf00 b4bc 2917 b3bd 1570 0ebe 2a3b 043d
000002a0: 0553 0dbe 2c5a 813d e09c 81bd 0be8 35be
000002b0: 4b7d 90bd 06fb 823d 07a9 50bd 57bb f2bc
000002c0: 4fb2 07bd a631 7bbd d3b6 72b9 477d 3d3c
000002d0: 41c5 8abd b251 d83c 7c3e d83c 6e9e 5d3d
000002e0: c17b 193d 7c1c 953c 75d9 7f3d 6e33 8d3d
000002f0: cb7c e73d 555e 15bd 53af 75bd b206 5dbd
00000300: b86d 95bd ac7b e8bb 7168 09bd 40b4 f73d
00000310: 5fba bbbd 356a 383d 0994 5a3e 6f83 44bd
00000320: 92b4 a3bc 9767 e43d 8614 07bb eaef 1abd
00000330: 7ffe e03e 1b8c 843d d754 90bd 3acf 9f3d
00000340: 1dcc 1dbd 2bd8 f93c d45b 20bd 7bd5 e2bc
00000350: b3b4 cf3c 3e25 a03c c856 abbc 2602 c13d
00000360: 8870 63bd a5ac cbbc d778 8f3d 8888 be3c
00000370: d0dc 033c 0377 ac3d 44f3 f2bd c564 0bbc
00000380: 1ee0 563d c87a a33c be63 9ebc 67c3 023d
00000390: 3b29 ffbd 5d13 f8bb ff93 da3c cd85 88bc
000003a0: 9ce6 233d 09dc d83b 0d6d 46be 9f72 583b
000003b0: dae9 24bc c442 be3c 3558 173e 3b56 bdbe
000003c0: bba7 a4be 3c0d bebd 3476 e2be 0aee 033d
000003d0: d662 80bd 0053 e63d 494e f03d d3f7 1c3d
000003e0: a0a8 1b3e 01e9 863d 016c 4dbd 66bd 063e
000003f0: 5330 423e 9d19 9f3d 676f 243e ede7 8f3d
-0.09043388 -0.093917556 0.045871064 -0.10341903 -0.08341513 0.040856183 -0.06720308 -0.08384295
0.04021869 -0.082370944 -0.07011167 0.048574172 -0.047593143 -0.063810505 0.04139018 -0.09894145
-0.083449274 0.05191321 -0.08350573 -0.08359264 0.047380656 -0.06972754 -0.116427004 0.059859093
-0.006665744 -0.055362493 0.07329813 -0.037448324 -0.10574257 -0.00305729 -0.053573057 -0.03553477
0.12562577 0.05164891 -0.054120313 -0.03171341 -0.0845653 -0.08053056 0.22567312 0.0559501
-0.047369774 -0.017154085 -0.094968714 -0.097781315 0.20516323 0.06920935 -0.049223624 -0.029560916
-0.09696401 -0.08778402 0.22343673 0.0816835 -0.068277165 -0.035354048 -0.102553174 -0.08824643
0.23644505 0.105553836 -0.18667106 0.07654234 0.19466412 -0.046441637 -0.07219092 -0.03633983
-0.26482844 0.07864572 0.22636892 0.3274303 0.19402991 -0.0754244 -0.26552075 0.1438305
0.14075942 0.39016497 -0.05748204 -0.0828103 -0.2630019 0.14100917 0.12124478 0.39526203
-0.08244251 -0.124301516 -0.29063818 0.1932753 0.14445686 0.3780711 -0.16131525 -0.13768457
-0.044190474 -0.09044644 -0.059832044 -0.07092881 -0.06819101 -0.141363 -0.055670705 -0.046126865
0.0053763553 -0.06783382 -0.045210052 -0.073301375 -0.017539317 0.11348498 -0.095718846 -0.00276827
-0.08317079 -0.13349406 0.0026362669 -0.044616167 0.19168273 -0.05331564 -0.008977313 -0.018327959
0.16738653 0.12768294 0.8950044 0.05126049 -0.07435936 0.24405862 0.17620614 0.13806254
-0.04121406 -0.014076029 0.042379078 0.031287998 -0.07173564 -0.003947984 -0.16759472 0.014244606
0.035059664 0.009319546 -0.035460614 0.005858419 -0.27144593 -0.02919689 0.097126305 0.009962575
-0.005542111 -0.0144009795 -0.23857279 -0.020707889 0.07131301 0.008607893 -0.01353673 -0.011883225
-0.107894 0.026527397 0.002801253 -0.27552015 0.14094818 -0.006750994 0.32056072 -0.1458868
0.1781584 0.35902247 0.05403674 -0.073123395 -0.08814807 0.04869337 -0.0010602837 -0.08640437
-0.0965577 0.018939858 -0.10138644 0.043160677 -0.021973012 -0.08744652 -0.13909943 0.032282986
-0.138012 0.06316027 -0.0632875 -0.17764299 -0.07055148 0.06395535 -0.050942447 -0.029630346
-0.033129033 -0.061326645 -0.00023147026 0.011565513 -0.067759044 0.026406143 0.026396982 0.05410617
0.037471537 0.018202059 0.062463243 0.06894575 0.11303099 -0.036466915 -0.059981655 -0.053961463
-0.07296318 -0.007094821 -0.03354687 0.12094927 -0.09166407 0.045023162 0.21345533 -0.047976907
-0.019983564 0.11152571 -0.0020611598 -0.037826456 0.43944165 0.064720355 -0.07047432 0.07803197
-0.038524736 0.030498585 -0.039150074 -0.027689686 0.025354719 0.019549008 -0.020915404 0.09424238
-0.05552724 -0.024862597 0.0700547 0.023258463 0.008048251 0.08421137 -0.118628055 -0.008507912
0.05245983 0.019956008 -0.01933467 0.03192463 -0.12459036 -0.0075706677 0.026681898 -0.016665364
0.040014848 0.006618027 -0.19377537 0.0033027304 -0.01006552 0.023225196 0.14779742 -0.3697985
-0.32159218 -0.09279868 -0.44230807 0.032209434 -0.062688515 0.112463 0.11733682 0.03832228
0.15201044 0.06587411 -0.05015183 0.13158187 0.18963747 0.07768557 0.16058122 0.07026658

encoder.0.bias f4 [150]
00000000: 4e5f 68bb 8689 1e3f 22e3 973e 6146 00bc
00000010: d9fc 1e3d 1f6c 8dbc 9807 25bc c633 3abd
00000020: 2580 4a3d da43 013c e47a 9d3d 5f9a 3a3d
00000030: 7701 b4bd 97d1 b13c feab 2cbe a69d a5bc
00000040: 66b1 c5bb da7b a3be 48ae c23c a5f9 2ebe
00000050: 27c6 99bd 8c5f 3abe 8303 1e3e 49a6 f4bd
00000060: 41db 1ebd 0cf0 973e a981 8dbe 5751 dcbc
00000070: f99f 363d 6170 c7bc 6093 563c 0077 b13d
00000080: 6474 123e b21f 55be 4f99 bb3d 501e 25be
00000090: 9541 48be c771 103e 17b2 84bd ad53 833c
000000a0: ed41 593e ba40 d7bd 674c 53bc 9c42 95bd
000000b0: 51ed 3f3d 03cc 2b3c 84b6 c8be 9ef7 1bbd
000000c0: 3393 5c3d 4d4e 6a3c 0970 0a3d 4aee 7abd
000000d0: 5316 ba3c 3fcb 873c be0a 94bd 9944 83bc
000000e0: 6a2f f53d 42c2 e2bd e184 783d 368a 87bd
000000f0: a4b5 053d d794 cd3e 9ad1 aabd 8ab9 193e
00000100: 05e3 d1bd 83b2 883d 8733 143d 5001 0bbe
00000110: 3b5b 0a3e 0a78 81be 9fca 37bd 63c2 3dbd
00000120: 1f3e d2bd bce7 46bc b28a 53bc bb7d 13be
00000130: ccf7 ccbc ae00 45bc f0b8 0abd 3015 03bd
00000140: 57ea 453c 5ea2 b9bc 7952 9fbb 5908 18bc
00000150: 99b6 02be a301 16be 5f66 073d 5b4d f7bd
00000160: cc08 0e3c f591 b53d ab99 d93c 8d59 41bb
00000170: cd19 5cbc f144 efbd 2745 a4bb dbe5 eebd
00000180: 2a1b 5b3d 3739 15bd 132d 26bd 2b32 32bc
00000190: 1a4a 90bd 342b 03bc 0f9a 7c3c 9126 f33c
000001a0: 8328 a3bd 4926 b7bd 90e1 c53c 4d20 81bd
000001b0: c599 a93d e8df 823c e535 a5bc ca2f 223c
000001c0: 4800 34be b71c bb3d 673b b33c 486f f9bc
000001d0: 5ffd 50be 4d7a df3c 34bb 9cbd 8619 06be
000001e0: 3669 f5bc a6a1 6d3e 92d9 503c 5b83 623c
000001f0: 84a0 c43a 195a ee3b 9f12 983d d65a 5a3e
00000200: beb6 afbd 743a 383d 4e47 113e bbc3 a23d
00000210: 1949 983e aab1 8abc cb0d f63d f3ee 1bbe
00000220: 423c c43d 1a1a 55bb c0f3 853b b474 e53b
00000230: 7dd5 783c 56d6 c13d 3e37 b33c d913 243d
00000240: 4b6d b33d 87fa 3fbe d7d1 9cbc 35ae 203e
00000250: ec19 2bbe 6c34 1bbd
-0.0035457197 0.61928594 0.29665476 -0.00782928 0.038815353 -0.01726347 -0.010072611 -0.04545953
0.049438614 0.007889712 0.07689455 0.045557376 -0.08789342 0.021706386 -0.16862485 -0.020216774
-0.0060331104 -0.3193043 0.023764744 -0.1708742 -0.07508498 -0.1820051 0.15431027 -0.11945779
-0.038783316 0.2967533 -0.27637985 -0.026894255 0.044586156 -0.024345579 0.01309666 0.086652756
0.14302212 -0.20812872 0.09160101 -0.16124845 -0.19556268 0.14105903 -0.064792804 0.01603111
0.21216555 -0.105103925 -0.012896634 -0.07288095 0.046857182 0.010485652 -0.39201748 -0.038077943
0.053851318 0.014300895 0.03379825 -0.061262406 0.022715723 0.016576407 -0.072286114 -0.01602392
0.11971934 -0.11072208 0.0606736 -0.066181585 0.03264393 0.40152618 -0.083407596 0.15012184
-0.10248379 0.066746734 0.036181953 -0.1357472 0.13511364 -0.25286895 -0.04487097 -0.04632796
-0.10265755 -0.012140211 -0.0129114855 -0.14403431 -0.025020503 -0.012024088 -0.033867776 -0.032002628
0.012079797 -0.02266043 -0.0048621264 -0.009279334 -0.12764968 -0.14649062 0.033056613 -0.12075301
0.0086690895 0.0886573 0.026562532 -0.002950284 -0.013433886 -0.116830714 -0.0050131264 -0.11664935
0.053492703 -0.036431517 -0.04057033 -0.010876219 -0.07045384 -0.008005906 0.01541759 0.029681476
-0.07966711 -0.08942849 0.024155408 -0.06304989 0.08281282 0.015975907 -0.0201673 0.009899089
-0.17578232 0.09136336 0.021878911 -0.03044857 -0.20409153 0.027279997 -0.07652894 -0.13095674
-0.029957395 0.23206195 0.012747185 0.013825263 0.0015001451 0.007273924 0.07425427 0.21323714
-0.08579777 0.04497762 0.14187357 0.07947489 0.2974327 -0.01693042 0.120143496 -0.1522787
0.09581806 -0.0032516778 0.004087895 0.0070024375 0.015187618 0.094647095 0.021876927 0.04005799
0.0876108 -0.18747912 -0.019143028 0.15691455 -0.16709107 -0.03789179

encoder.2.weight f4 [150, 150]
00000000: e71b 86bb c982 12bd cc86 cebd 5912 44bd
00000010: 5b05 d3bd e4a0 2a3d 46a6 3d3c e2aa dcbd
00000020: 251e f3bc 007a 6abd 6b51 a9bc 1d8f b1bd
00000030: 14e6 513c 9d66 893d 2cda 2fbd e7a7 debd
00000040: 2e2c 03be eec6 653d 14da 013d 2b41 2dba
00000050: 634c 63bc b41c e03c 08a4 8ebc aa5c b13c
00000060: 555f 843d e02d 453b 44f4 293d 44bd 1739
00000070: 3cf5 5e3d 962c 3abd f9ae f33d 7361 8e3d
00000080: f202 7a3c 17a7 143c 52fa 913b f37e 0a3d
00000090: ed89 fa3c 450c 8ebd 1cf2 97bd ddbb 99bb
000000a0: b983 6fbd b283 de3d 2345 7dbc d14c 95bd
000000b0: eae3 a2ba cb94 23be 987c 103e ff20 9dbc
000000c0: af03 8d3d cfc4 d6bc 5023 703d cab9 323d
000000d0: 08cc a7bc bd6d fa3b 2ae7 a73d 61aa a4bd
000000e0: 97ba bdbc d6ed 5f3d 35ce b4bd 935e af3c
000000f0: fc97 52bc 02c6 953d 2a83 9d3c 0c10 15be
00000100: b12c 5a3d 9eb8 80bd 9b68 cebb a60f 893d
00000110: 2ba4 76bb 1b6e d73d 1479 80bc 4d13 193d
00000120: 6b4a a43d c7c8 213d 0eda 91bc ae5e bebd
00000130: d366 ad3b 2115 563d c41e 3f3d 5363 243c
00000140: 3b0a 63bd 5a3d 8dbd fb5d 913d 1d04 2a3d
00000150: 03c1 613c 62df c53c f4f6 f43c 6ce0 5f3d
00000160: 4525 b5bc 3e74 0ebe 07ef 80bd 91d3 19bd
00000170: 6df0 9c3b 67c5 3a3d 047f 123d 647b dfbc
00000180: 1d6d e7bd 4e47 293d 0765 903d 385c 45bd
00000190: 2ce4 563e db54 c1bc 7c0c 72bd 3a53 b4bd
000001a0: 5f96 90bc 4b8c 2abd ec3c 71bd b77c 94bd
000001b0: 85af 9b3d 669f 5bbd 6cd7 6d3d 2405 373d
000001c0: fe8f 373c cb75 3e3d 7c93 14bc ed02 93bd
000001d0: 8afd 81bd 9090 6fbc 82c4 a83d 8d4c c23d
000001e0: fff7 cfbc a2a4 d13d 8f8a 8e3d 662c 5b3d
000001f0: 876a 953c d741 0abc 5b40 7cba ae6c b43d
00000200: 078f bd3d 7bdd 3cbd ae99 213e 5e3f 6f3d
00000210: 4766 c9bd 6b2b 293d df34 4a3e 04ae 863d
00000220: 47cc c53d 7342 15bb a893 4bbc b066 c83d
00000230: 31f1 863d 3f5a ca3c bd0e 123e 630f 14bd
00000240: 7e73 87bb 7819 43bc 8ca1 593b 2987 a43d
00000250: 1e24 be3d f49a b23c 44f9 843d 136f 163d
00000260: 38a6 9abc 2cb5 a13d aa9f 5f3d 8172 81bb
00000270: 2308 cbbc 7384 ca3a 1c1a a3bb 2b5f 7e3d
00000280: 76f4 983d a5ca 5ebd e8c7 afbc bea1 023c
00000290: 251c 3f3d 296c 22bd 5358 ad3c 3573 2f3d
000002a0: 312e 3ebc f43a 91bc b6c0 a13d fd19 c63b
000002b0: 86c8 103d 880d 883d c825 4bbd 054d 1cbe
000002c0: e947 43bd c4f6 8c3c 49b4 933b ce24 8f3b
000002d0: 04a0 c9bd b803 c9bd b936 eebb be6d 103e
000002e0: 7025 1d3d 4242 f93c a6e0 1f3d b345 5dbd
000002f0: 7b23 84bc 1cdf 433c 2969 78bc 92b4 bebc
00000300: 1b0d a03d f380 09be b91f 5bbd 9939 d3bc
00000310: 390a 9a3d f3e5 853c 4c74 69bd 3ae1 043e
00000320: 26e1 0abb 8627 6cbd 5428 4bbd 8211 6b3d
00000330: 6507 92bd a111 0fbc 8149 703d 30ca 163d
00000340: f2d7 483d a8fe b33c 2a32 073c a496 afbd
00000350: 584f 883b 7b5c f3bc a963 08bd 2c0d 63bc
00000360: 9ab5 1fbd b068 783a 84fe 1e3c 7e16 75bd
00000370: c242 233d c2c1 e0bc d43b 8739 6073 45bd
00000380: 5f4e 763d ce59 85bd 8c08 74bc 7993 18bd
00000390: 0a8d de3c 7afd c83d 5512 c63b dbed 04bc
000003a0: 5176 4a3d 781a ad3d 6c49 003d 9c11 903d
000003b0: b90a 46bd 7203 12bc 5f8a 1c3d a7fd 63bb
000003c0: df63 2dbd 2e18 793d 724d 683d fe0e a73c
000003d0: ec5b 6bbd 3670 bb3c 4784 44bd d5ac c43d
000003e0: 8f88 953b e5b2 b0bc 44fb 0fbd 88d9 c5bc
000003f0: 0101 423c 6eb6 653a 4611 bdbc 4b0d 7dbd
-0.0040926817 -0.035769258 -0.10084304 -0.04786906 -0.10303756 0.041657344 0.011575287 -0.10774781
-0.02967746 -0.057245255 -0.020668706 -0.08669875 0.012811203 0.06709025 -0.042932674 -0.108718686
-0.12809822 0.056097917 0.031702116 -0.0006609137 -0.0138731925 0.027357437 -0.0174122 0.021650631
0.06463496 0.0030087158 0.041492715 0.00014470989 0.054433092 -0.045452677 0.11898608 0.06952181
0.015259491 0.00907304 0.0044548893 0.033812474 0.030583346 -0.06935934 -0.074192256 -0.0046915845
-0.05847523 0.10864963 -0.015458378 -0.07290042 -0.0012427543 -0.15974729 0.14110029 -0.019180773
0.06885468 -0.026216893 0.058627427 0.043634214 -0.020483032 0.0076424764 0.08198388 -0.0804031
-0.023160262 0.054670177 -0.08828393 0.021407401 -0.012853619 0.073131576 0.019227583 -0.14556903
0.053265277 -0.06285213 -0.006299091 0.06692438 -0.0037634473 0.10519048 -0.015682735 0.037371922
0.080220066 0.039498117 -0.017804172 -0.092954025 0.0052917986 0.052266244 0.0466602 0.010033446
-0.05542968 -0.068964675 0.070980035 0.04150783 0.013778928 0.024154369 0.029902913 0.054657385
-0.022112498 -0.1391153 -0.06295591 -0.03755528 0.004789403 0.045598414 0.035765663 -0.027280517
-0.113001086 0.041327767 0.070505194 -0.04818365 0.20985478 -0.023600033 -0.059093937 -0.08804937
-0.017649828 -0.0416377 -0.05889599 -0.0725035 0.07601837 -0.05361881 0.05806677 0.044682637
0.011203764 0.046499055 -0.009068366 -0.071782924 -0.06347187 -0.014621869 0.08240606 0.09487257
-0.025386808 0.10236479 0.06960022 0.05350914 0.018239273 -0.008438549 -0.0009622627 0.088097915
0.09255796 -0.046109658 0.1578128 0.05841004 -0.09833961 0.041301172 0.19746731 0.065761596
0.096581034 -0.0022775203 -0.012425341 0.09785211 0.06588972 0.024701236 0.14263435 -0.036147486
-0.004133641 -0.011907928 0.0033207862 0.08033592 0.092842326 0.021802403 0.06492856 0.036727022
-0.018878087 0.07895884 0.054595627 -0.0039504175 -0.024784153 0.001545085 -0.0049774777 0.062102478
0.07468502 -0.054392476 -0.021457627 0.007973133 0.0466577 -0.03965393 0.02116028 0.04283448
-0.011607693 -0.017728306 0.07898085 0.0060455785 0.035347484 0.06643206 -0.049596578 -0.15263756
-0.047676 0.01720751 0.0045075756 0.004368401 -0.09844974 -0.098151624 -0.007269707 0.14104363
0.03836578 0.030427102 0.0390326 -0.05402155 -0.0161302 0.011955049 -0.015161791 -0.023279462
0.07815 -0.13428096 -0.05349705 -0.0257843 0.07521481 0.016345 -0.056995675 0.12976542
-0.0021191328 -0.05765488 -0.049599007 0.057389744 -0.07130317 -0.00873223 0.05866385 0.036813915
0.049034066 0.021972016 0.008251706 -0.08573654 0.004159849 -0.029707184 -0.03329817 -0.013858121
-0.038991548 0.0009476049 0.009704236 -0.059835903 0.039858587 -0.02743614 0.00025793782 -0.048205733
0.060133334 -0.065112695 -0.014894616 -0.037250016 0.027166862 0.09813972 0.006044666 -0.00811335
0.04942924 0.08452314 0.03132002 0.07034609 -0.04835007 -0.008911954 0.0382179 -0.003478864
-0.042331573 0.060814075 0.056714483 0.020392891 -0.05746071 0.022880655 -0.047977712 0.096032776
0.004563398 -0.021569679 -0.035151735 -0.024151579 0.01184106 0.0008762841 -0.023079526 -0.061780255

encoder.2.bias f4 [150]
00000000: 4685 653a f65e 923c 4f8b 593d e5b2 7ebd
00000010: 26c3 51bc 1aff 0e3e f8f8 ca3c 6a49 95bd
00000020: d069 993d 3fa8 093d fd2a 903c a9b7 95bb
00000030: a099 943d be66 693e a78d 1f3c d83e 3a3d
00000040: 16e9 1e3d 9463 b93d 4eeb 973c 4936 d53d
00000050: 7b9f 4b3d d903 463d e974 143e 6694 ddbc
00000060: 4e81 223d 72a3 a03d 71ed 13bc 998b 823d
00000070: 09aa 0e3d f5e3 013c 9fc4 913d ec95 103d
00000080: b324 f23a 521e 483b 60af bf3d 5410 f1bc
00000090: bf9f 1f3d 8026 f03c 8a81 593d 5981 293c
000000a0: f4a5 6e3d 63b0 173d 6366 543d 2015 af3c
000000b0: e76b 5a3c 9def 453d eb1e d53c 817d 963c
000000c0: 426b 903d 9ba3 863c 804d 373d 016f 663d
000000d0: 9dae b13c 00eb a03d 07a5 643d 580d bd3c
000000e0: a143 1d3a 0810 da3c ba15 8a3c 546f 843d
000000f0: 1dda 163d 1df0 6ebb 6592 153d 6664 76bc
00000100: 42c1 01bd 3e4d 973c dd10 243b a449 2b3d
00000110: fa56 ccbb 0962 c93d ca01 2c3c eb0c 123c
00000120: 8381 7b3d c24b 263d 521f c03b 852c e73d
00000130: ec5c c63d db4a 943d bdd8 793d dd77 673d
00000140: 792c 273d 1f26 b53c a772 8b3c e43c 2c3d
00000150: 8454 a73b ec2c f73a 4671 3dba c448 6c3d
00000160: 769b 963d fb92 a63c 5f5f 963d 2f31 8f3d
00000170: 65b3 5c3c a3b9 e43b 6819 92bd 8e6e bfbb
00000180: b033 c53c 160f 953c 9501 8c3d c469 53bc
00000190: 12fc 163d ca36 993d 3db9 943c 8754 4a3d
000001a0: 5334 1abe e471 3a3d 8dd9 933d 8813 b13c
000001b0: 3c57 3b3d 6c4a 2e3d 5ea3 f53c a3d1 ef3d
000001c0: cb45 6a3d 2796 c73c e94c e53c daf0 2339
000001d0: b2ed e63b 0c26 c43b f23f 2b3d 7faf abbd
000001e0: 8b51 b1bc f85a 103d 69f3 953e c643 313d
000001f0: 5dad a13c 50df 5d3b 6d58 c83c d224 cebc
00000200: 2d65 2f3d 5055 173d 8e19 4d3d 5806 093d
00000210: 3f5d 443d 32f3 eb3b 8b05 113d 62a5 7c3c
00000220: 8106 523d 167b 823d 8a43 faba fba1 7e3c
00000230: c1e7 243c d44a 553c d3a8 583c 1230 4d3c
00000240: cb6b 273d a989 47b8 dd6a 9a3e 10a6 5a3d
00000250: e8c0 6f3c 531a e93c
0.0008755516 0.017867547 0.05311137 -0.062182326 -0.012802875 0.13964501 0.02477692 -0.07289393
0.07490885 0.033607718 0.017598623 -0.004569013 0.07255864 0.227931 0.009738362 0.04547009
0.038796507 0.09052196 0.01854482 0.10410745 0.04971264 0.048343513 0.14497723 -0.027048301
0.039674096 0.07843675 -0.009028778 0.063742824 0.034830127 0.007927884 0.071175806 0.035299227
0.0018474072 0.003053565 0.09359622 -0.029426731 0.038970705 0.029315233 0.053102054 0.01034578
0.058263734 0.03703345 0.051855456 0.021372378 0.01333139 0.048324216 0.02601572 0.018370392
0.07051708 0.016435435 0.044751644 0.056258205 0.021689707 0.07857323 0.055821445 0.023077652
0.0005999152 0.026618972 0.016856063 0.06466547 0.036829103 -0.0036459037 0.036516566 -0.015038585
-0.031678446 0.01846945 0.0025034465 0.041818276 -0.0062359544 0.09833152 0.010498473 0.008914213
0.06140281 0.040599592 0.0058631087 0.11287788 0.09685692 0.0724084 0.060997713 0.056510795
0.040813897 0.022112904 0.017022444 0.042050257 0.0051065106 0.0018857992 -0.0007226657 0.057686582
0.073538706 0.020333758 0.07342409 0.06991803 0.013470505 0.0069801374 -0.07133752 -0.0058420366
0.024072498 0.01819567 0.06836239 -0.012903634 0.036861487 0.07481153 0.018154735 0.049397018
-0.15059023 0.04551877 0.07219229 0.021615759 0.04573749 0.042551443 0.029985126 0.11709907
0.057195466 0.02436359 0.027990775 0.00015634616 0.0070473785 0.005985981 0.04180903 -0.083830826
-0.021645328 0.035243005 0.2928727 0.043277524 0.019735986 0.0033855028 0.024456227 -0.025164042
0.042821098 0.036946595 0.0500732 0.033453315 0.04794049 0.007200622 0.035405677 0.01542029
0.051275734 0.06371133 -0.0019093615 0.015541549 0.01006502 0.013018329 0.013223845 0.012523668
0.040874284 -4.7573503e-05 0.30159655 0.053381026 0.014633395 0.028454935

encoder.4.weight f4 [90, 150]
00000000: 2b40 26bd cd51 e63d ad85 98bd d7ce 523c
00000010: d80e a13d 7ab4 ee3b 81ba fdb9 053b a2bc
00000020: 7426 2fbd 400b b93c 31a4 18bd 1236 34bd
00000030: 1f0e d93c 587b e53d 0be9 b9bd 69bf 173e
00000040: 3acc 163d 6c56 90bc 1bde f83d aa20 ea3d
00000050: 3215 a7bd cc00 233d ed19 efbd 0492 1fbd
00000060: 5ee2 f93a b706 cdbc e89f 27bd a322 21bc
00000070: a96f 603d 638c d8bb 61a5 213e 60de 55bd
00000080: 4d38 36bb 8973 603e 8b93 07bd ac10 c23b
00000090: 5bf7 e5bc 9d62 26bd df7c 8c3c f3fc 743d
000000a0: 724d ae3d 98d3 81bd e836 12bd ad98 5c3d
000000b0: a74e 4d3e 5d99 6cbd 6baf cc3b 3ee7 57bc
000000c0: 0ba8 e53b 6569 aa3a 10f5 9cbc fd08 e73d
000000d0: bc96 16bd 8f9a 4ebc 0dee 60be 0a7e 06bc
000000e0: 58d5 823c 4a81 b03d a356 043d dbcc 75bd
000000f0: 18e7 c93d b529 35bd 5bf6 113e ce3e ffbc
00000100: fdb8 5bbd c346 7e3d bb9f ab3c 2a50 833c
00000110: 249c f13a a19f e13d b394 083d bd52 1bbd
00000120: 4af7 2d3d b8ae 353c dac6 823c 8d78 5c3c
00000130: cdaa 8b3d 86ed 1cbd 4916 903d 878b a2bd
00000140: b1cd 833b 9497 ed3d 4f59 a0bc 235d 1a3e
00000150: aee1 93bd 5e55 213b f24c 9b3d 7b40 ebbd
00000160: 49a6 d13d c9e3 61bc 62bd 21bd f18a df3d
00000170: 5358 7dbd 0fd3 1bbc c84f 43bd c6d6 ca3d
00000180: 8b21 093e 103f ed3d 3793 7cbd ee54 9fbd
00000190: e0fe f43d 0225 8cbd ec53 eb3b 6a2d dcbc
000001a0: d312 6ebc da4b 3fbd 3981 20bd 5f72 a2bd
000001b0: e051 243e 5541 bf3c 7e91 34bd 2ff6 6c3d
000001c0: f7e7 ae3d 1126 173d b451 0d3e ebe9 00bc
000001d0: d1fd 8dbc faa8 323c 81e4 173b 0316 4c3e
000001e0: c66b 8bbd 0ff1 4c3d 2e78 893d 870e 96bd
000001f0: 92a2 1dbd f431 723d 9fba 09bd 1b43 3f3d
00000200: 72c6 3d3d 41a8 a23d 335c 213e 0b99 5fbd
00000210: 5362 073d ba7e 843b 7659 0abc d1c6 2dbd
00000220: c476 913d 0cd8 38b9 397e 043d d454 e1bd
00000230: 4990 19bc ef98 18bd 4715 0d3d 45cd bd3d
00000240: 5eff 5f3d 6888 2138 332e 1f3e a01a 213e
00000250: 2713 033e 5c51 b83d 94b7 59bc 542b 6d3b
00000260: e71c 903c 2c3e 043b 2f40 af3c b21d 40bd
00000270: 3e56 d63d c706 043d 086c 8e3b 1cbd c0bc
00000280: 45db bf3b edf2 813d 8379 27bd 7985 f13d
00000290: 5784 54bc 9b32 44bd b83d 72bd 1716 953d
000002a0: f3c9 35bd 4aa6 d4bc da6d 2c3d f83b 353b
000002b0: 622a 4dbb 748b 85bc cbe9 773c e0bf f23a
000002c0: 2408 783c b56a 16bd 31f4 0abd b50f 02bc
000002d0: d2a9 4dbd b509 993c cabe febc 7c70 eb3c
000002e0: 31c1 423c e9a6 0c3c 63b6 fb3d 9903 393e
000002f0: 5e33 043d 4d3e bf3c f278 f9bb 96bf 693d
00000300: 1aa1 3d3c 79a2 a8bb 90fc 28bd 97e3 29bc
00000310: e705 b23c 4627 bf3c 53c9 f5bc a38b bb3d
00000320: 6a4f 343d fd76 a5bc 85b1 913c b7de 4bbd
00000330: 73b6 6fbd 1a60 0fbd e0b6 29bd 3fb0 80bc
00000340: 1e84 f2bc e8a9 2abd f6de 333d fb3c f23c
00000350: 83a8 ad3c 22f7 393d 4a26 71bd b751 64bb
00000360: c829 f2bc 08c9 76ba d26f 1a3d f280 083d
00000370: a148 0dbd 64ef a5bc 9af2 e4bb 60ac debc
00000380: 958c 12bc 982e 4cbd 12ac 44bd 16c1 2ebd
00000390: ffbe 01bc 712c 0c3c e4aa a73d 111d c2ba
000003a0: 6a26 7abd a619 c03c fd13 babc 3918 7f3d
000003b0: ff1b f4bc 5b9d 5f3c 08da 5a3d 1688 973c
000003c0: 24ec 463d c2d9 0b3c 6cfc f23c 0b04 54bc
000003d0: cf1d cfbb f00e 833c 4043 f1b9 264d 7abc
000003e0: 4bb1 eabc 484d d53c 9cf8 d63c c417 da3c
000003f0: 7e8d 9cbc b5b4 963d 9932 603d 2ef8 333d
-0.04058854 0.11246071 -0.07447372 0.012866697 0.07864159 0.007284698 -0.00048394877 -0.019803533
-0.04276128 0.022588372 -0.03726596 -0.043996878 0.026495991 0.112051666 -0.090776525 0.14819111
0.03681586 -0.017619334 0.12151738 0.114320114 -0.081583396 0.03979568 -0.11674867 -0.03895761
0.0019064655 -0.025027616 -0.040923983 -0.009834918 0.054793987 -0.0066085323 0.15785743 -0.052214026
-0.0027804554 0.21919073 -0.033099692 0.0059223976 -0.02807205 -0.04062139 0.017149387 0.059811544
0.08510865 -0.063391864 -0.035696894 0.05385654 0.20049535 -0.057763446 0.0062464974 -0.013177691
0.0070085577 0.0013001381 -0.019159824 0.11281011 -0.036764845 -0.012610092 -0.21965809 -0.008208761
0.01597087 0.0861841 0.032309186 -0.06000982 0.09858531 -0.044229228 0.14254133 -0.031157877
-0.053643215 0.062079202 0.020950189 0.016029436 0.0018433374 0.11016775 0.033344936 -0.037920702
0.04247216 0.0110890195 0.01596396 0.013456476 0.06819687 -0.038312458 0.070355006 -0.07936769
0.004022323 0.11601177 -0.019573836 0.15074591 -0.07220779 0.0024617533 0.075830355 -0.11486908
0.102367945 -0.013787218 -0.03948725 0.10915173 -0.06185181 -0.0095107695 -0.047683507 0.09904246
0.13391702 0.11584294 -0.061663833 -0.07779871 0.11962676 -0.06842996 0.007181635 -0.026877124
-0.014530855 -0.046703197 -0.039185736 -0.07931971 0.16046858 0.023346582 -0.044084065 0.057851966
0.085403375 0.036901537 0.13800699 -0.00786827 -0.017332943 0.010904545 0.002317697 0.19930272
-0.068076655 0.05003458 0.067123756 -0.073269896 -0.038485117 0.05912967 -0.03362524 0.046694856
0.04633183 0.07942248 0.15757827 -0.054589313 0.033052754 0.0040434273 -0.008444181 -0.042425934
0.07102731 -0.00017628091 0.032346938 -0.11002508 -0.009372779 -0.037255224 0.03444412 0.09267668
0.054686897 3.851243e-05 0.15544967 0.15732813 0.12800275 0.08999893 -0.013288397 0.0036189156
0.017591907 0.002017866 0.02139291 -0.04690332 0.10465668 0.032233026 0.0043463744 -0.023527674
0.0058549964 0.063451625 -0.040887367 0.11793036 -0.012971005 -0.047899824 -0.05914089 0.07279604
-0.044382047 -0.025958199 0.04209695 0.0027654152 -0.003130578 -0.016301848 0.015131424 0.0018520318
0.01513866 -0.036722858 -0.033924285 -0.007938315 -0.05021078 0.018681386 -0.031096835 0.02874016
0.011886881 0.008584716 0.12290647 0.18067779 0.03227555 0.023345137 -0.0076132948 0.057067476
0.011574054 -0.0051463214 -0.041256487 -0.010369203 0.02173133 0.023334157 -0.030003225 0.09157493
0.044021048 -0.02019834 0.017784843 -0.049772944 -0.058523607 -0.03500376 -0.04143417 -0.01570904
-0.029604014 -0.04166594 0.043913804 0.029570093 0.021198517 0.0454017 -0.058874406 -0.0034838745
-0.029560938 -0.0009414111 0.037704296 0.033326097 -0.034493092 -0.020255752 -0.006986928 -0.027181804
-0.00894465 -0.049849123 -0.04801566 -0.04266461 -0.007919072 0.0085555175 0.08186892 -0.0014809688
-0.06107179 0.02344973 -0.02271461 0.06227896 -0.029798506 0.013648356 0.053430587 0.018497508
0.048565045 0.008535804 0.02966138 -0.012940417 -0.006320692 0.015998334 -0.00046017207 -0.015277183
-0.028648993 0.026037827 0.026241593 0.02662266 -0.019110437 0.07358686 0.054735754 0.043937854

encoder.4.bias f4 [90]
00000000: 13fc ac3c bb4e f33b dcb4 0c3d 0416 913c
00000010: 6ef4 413c 8b7c 3bbd 6253 b33c a250 33b8
00000020: 2da3 01bc cfda 79bd 257f 883a a4d9 033a
00000030: f4d3 ff3c 7cc1 243c 048e 1a3d 3488 053d
00000040: e1dd f73b a56c 16bc 1683 143d a911 833b
00000050: 3db4 8b3c 5b0f 4a3c 8c18 bc3b 8c65 d83b
00000060: 2d74 8c3c 8ba4 85b7 a635 d83c 1e81 de3c
00000070: 1859 8f3c 5576 d637 ba21 133d 6453 d5bb
00000080: 9e99 5cb8 db9a e4b8 b1a2 563b d7a8 363d
00000090: 3e9d adbc d93a d53c aec9 953c 7c70 6434
000000a0: 88c6 b53b ea00 683c c300 b43c 48a8 a03c
000000b0: efa6 053d 23c4 803c 28ae a73c e802 ee3c
000000c0: 4587 193c d228 d73c 7869 4dbc 1bd0 ad3b
000000d0: 8cf1 433c 2fb9 0fbd 2207 2b3d acf8 d2bb
000000e0: 2c5a 963d 6574 ab3d ed6e 8d3c 2fa2 403c
000000f0: 905a 753c 70f4 f13d a1b5 903c 1f95 dd3c
00000100: d086 45b8 41f9 393b 1b77 a93c 30fa 843c
00000110: 5cf0 893c d79d e73b ca6a 133d e32d 993c
00000120: 21c4 68b8 b954 74b7 022c a73c 741c 1e3c
00000130: 5b24 9b3c 1e1c 843c 5785 c73c 8d19 8836
00000140: 484a 453c 5d04 88bc 6ffc 1d3c db62 e33c
00000150: 6004 04b8 c9a1 943c a4b1 053d 338f c33c
00000160: 5e81 533c a775 343c
0.021116292 0.007425157 0.03435217 0.017710693 0.011838062 -0.04577307 0.021890346 -4.275202e-05
-0.007912439 -0.060999688 0.0010413869 0.00050296844 0.031228997 0.010055896 0.037733093 0.032600597
0.007564292 -0.009181176 0.036257826 0.003999908 0.017053718 0.012332763 0.005740231 0.006603902
0.01714524 -1.5931457e-05 0.026392769 0.027161177 0.017498538 2.556589e-05 0.035920836 -0.006510185
-5.2595155e-05 -0.00010900731 0.003275078 0.044594612 -0.021193143 0.026029037 0.018284645 2.1275076e-07
0.0055473484 0.014160374 0.02197302 0.019611493 0.032629903 0.015718525 0.020468786 0.02905412
0.00937063 0.026264582 -0.012537353 0.005304349 0.011959445 -0.035088714 0.04175485 -0.0064383354
0.07341418 0.0837181 0.017264808 0.011757418 0.014975205 0.11814201 0.017664732 0.027048646
-4.7094014e-05 0.0028377327 0.020686677 0.01623258 0.016838245 0.0070683765 0.035990514 0.018698638
-5.549577e-05 -1.4563259e-05 0.020406727 0.009650338 0.018938234 0.016126689 0.024355574 4.0560903e-06
0.012041636 -0.016603643 0.009642704 0.027757099 -3.1475327e-05 0.018143551 0.032640114 0.023871994
0.0129092615 0.011014379

encoder.6.weight f4 [50, 90]
00000000: c073 aa3d 36f7 9abd d92f e43c ad28 b23d
00000010: a488 30bc ca12 3d3d 273d 80ba 4db4 16b7
00000020: 1629 9fbc 5012 133d cbaa 9e3a 4ca4 883b
00000030: ba61 fabc d133 d3bc 9f12 0c3d 0710 933d
00000040: 6fb3 343c ec93 fdbb a2c1 9e3c c344 ac3d
00000050: 8885 833c 54e3 783c 6dab 903d fd14 9fbd
00000060: 26db 1c3c d1d1 86b7 736e c4b9 5319 893d
00000070: efe3 a53d 51a3 0638 bbc5 b33c e745 90bd
00000080: 4f1b 47b8 6cd9 2e3d 6cea 803d f3a1 2e3d
00000090: cc70 693c 93dd 41bd 610e c03c 2b95 27b8
000000a0: c53e 22bd 99bd b13d 1396 24bc 48e4 d1bc
000000b0: cc04 a63d 20b9 553d 96ff 503b 863e 68bd
000000c0: 1c81 e23b 739e e73b e58d 5bbc 2240 b7bd
000000d0: 3ccd ca3b 42cb 84bc f8e0 ecbb e0a1 a63c
000000e0: 8ce4 863b 6a01 823b 1537 d53d ec8c 903c
000000f0: eb2f 863d 99f8 48bb 7d8c 1f3d 96c1 463d
00000100: 0626 81b6 1907 66bb 9fd9 003d 4604 263d
00000110: 1b2c 11bc 6889 9ebd 955d 213d ba77 75bc
00000120: 5c10 ba37 7069 9c37 95c1 55bd 2d94 be3c
00000130: 4295 3b3c bdda 073d 2465 19bd 3cdc 6ab8
00000140: 7c30 48bd 9065 7f3c 46bf a6bc 9ee8 d03b
00000150: e793 8bb3 9e4a 3abc e64e aebc b581 dbbc
00000160: b286 77bd d6db 3d3d 006e fab3 972a cb3c
00000170: e0af 80bc c8a8 3ebc 55de f0bd 0852 faba
00000180: d5a5 acbd 41f7 7338 1d31 fb3c e7cd 7abd
00000190: 807d 49bd 322d 22bd 370f 933d 1710 1e3c
000001a0: ae50 97bc da5b e33c c37f 8ebd 3cd9 e2bc
000001b0: 59b8 e3bc 1802 eb3c 06b7 a9bc 26b4 e7bc
000001c0: 8961 68bd ced7 7dbd da70 cfbc 6153 cb37
000001d0: 0eb9 5fbb 6472 9e3d 5266 5c3d 48d8 6038
000001e0: 78bb a93c 922f fabb 9d3b 1334 00ea 42bc
000001f0: 390b 42bd 0848 92bb b815 24bc 0272 7b3d
00000200: 76d4 b83d 19fb 8437 406a d33c e37c 063d
00000210: f2f0 863a ca71 a4bc 6097 413d 219b 8ebd
00000220: 5459 823b 2dc7 853c 139c b33c 9eca c1bd
00000230: ae71 693b 0b49 9ebd fe52 963d 474a 2aba
00000240: b9d1 d93c e7ed 8b3b 16eb 50bd d4d0 3bbc
00000250: 06a2 a73d fb07 d23d d4a5 a03c 8e0f 9b3b
00000260: 5638 0e3d 179a 58bc 3ec8 4db8 c4c8 033d
00000270: 3aad 523d 763a cdbc 72c7 cebb b556 22bd
00000280: 4b38 8fbc 60ef 193c 5065 5937 676d 60b8
00000290: c162 1a3d cdab 033d edf2 62bc 43c6 84bd
000002a0: 634d 493c f4dc 51b8 fad2 26bd c72d 5cbd
000002b0: a10a e53b d2dd 8d3b eb59 2438 1f0d 38bd
000002c0: 2e39 8f3d b2b2 803c bb00 ad3d 9be1 59bd
000002d0: 3630 ab3c a589 f3bd 6b26 99bd c077 663d
000002e0: f7c1 eebd 528a e7bc 5eb5 ab3d 4e56 2138
000002f0: 7917 be3c ab8b b8bb f48f b83d a2d0 9fbd
00000300: 6f00 98bc 5242 df3c a02b a13b cd1e 633d
00000310: db77 67bd 5403 373b 84e4 44bc 9817 213d
00000320: ed1f 1b3d 6ec2 4d3c 776d 253d 9408 17be
00000330: f222 093d 2a30 1e38 b1f4 0dbc 82d7 59bc
00000340: 8fcc 3c3d bbbd ddb7 c308 763c 6c80 4dbd
00000350: 8845 9db7 78e0 9f3d fc7a 823d 2a89 5f3d
00000360: 9944 493c f8ee 5abb d65d 2e3d 6e1e 3e38
00000370: e8e8 febb 7590 abbc dd2a dc3c 83a2 133c
00000380: 260c a23c e096 1e3d 0db5 433c dcc7 82bd
00000390: 6f3a b83c a652 b2bd cd9c 063c b44d 5bbb
000003a0: be02 123c 5fed f6bc a5d2 8a3c 426c dc3c
000003b0: eb31 abbc 506c 07bc 13dd 873c 11d4 0e3d
000003c0: 1e16 0e3d 341a b73b a828 27bc 40fb 2f3b
000003d0: 5e47 f6b7 c059 1e3b 5da7 413d 677e 983d
000003e0: 033b 3e3c 57c0 06be 3545 0ebd 7fbd 923c
000003f0: 79af 2c37 3e5c 86b7 f816 74bc d314 703d
0.08322859 -0.07566683 0.027854847 0.086991645 -0.010774765 0.046160497 -0.000978385 -8.982676e-06
-0.019428771 0.035906136 0.0012105344 0.0041699763 -0.030564178 -0.025781544 0.034197446 0.07180791
0.011029108 -0.007738581 0.01937944 0.08411553 0.016054884 0.015190918 0.07063947 -0.07767675
0.009573733 -1.6071748e-05 -0.00037466324 0.06694283 0.081001155 3.210019e-05 0.021944871 -0.07044583
-4.747073e-05 0.04268782 0.062947124 0.042634916 0.014248084 -0.04733045 0.023444356 -3.9954826e-05
-0.039610643 0.08678741 -0.010045546 -0.025621548 0.08106384 0.052178502 0.0031890622 -0.056700252
0.0069123637 0.007068449 -0.0134005295 -0.08947779 0.0061890166 -0.016210202 -0.007228967 0.02034086
0.0041166004 0.0039674537 0.10410897 0.017645322 0.065521084 -0.0030665754 0.03895234 0.04852446
-3.848926e-06 -0.0035099445 0.03145754 0.04053142 -0.008860613 -0.07741052 0.039395887 -0.014982158
2.2180546e-05 1.8645747e-05 -0.052186567 0.023264015 0.01144916 0.03316759 -0.03744997 -5.5995057e-05
-0.048874363 0.015588179 -0.020354878 0.0063753864 -6.499595e-08 -0.011370329 -0.021277856 -0.026795248
-0.06043119 0.04635223 -1.1661541e-07 0.024800582 -0.015708864 -0.01163692 -0.117611565 -0.0019097934
-0.084300674 5.8165988e-05 0.030663067 -0.06123152 -0.04919195 -0.039593883 0.071806364 0.009647391
-0.018471088 0.02775376 -0.06957962 -0.027691476 -0.027797865 0.028687522 -0.020717155 -0.028284144
-0.05673364 -0.061973386 -0.025322367 2.4238312e-05 -0.00341374 0.07736662 0.053808518 5.360719e-05
0.020719275 -0.0076350654 1.3712129e-07 -0.01189661 -0.047373984 -0.004464153 -0.010014944 0.061388023
0.09024899 1.5852553e-05 0.0258075 0.032833945 0.0010295196 -0.02007379 0.047263503 -0.06963182
0.003977934 0.016330326 0.021925008 -0.09462474 0.0035620737 -0.077287756 0.07340048 -0.00064960535
0.026589261 0.0042703035 -0.051005445 -0.011463363 0.081852004 0.102554284 0.019610323 0.004732079
0.034721695 -0.013220332 -4.90623e-05 0.032173887 0.051434733 -0.02505229 -0.006310397 -0.03963347
-0.017482897 0.00939545 1.2957797e-05 -5.350765e-05 0.037691835 0.032146264 -0.013851863 -0.06483128
0.012286517 -5.003526e-05 -0.040728547 -0.053754594 0.0069897925 0.0043294216 3.918439e-05 -0.04493439
0.06993328 0.015710209 0.08447405 -0.05319367 0.020897012 -0.11891488 -0.07478031 0.056266546
-0.116580896 -0.028264198 0.083842024 3.846577e-05 0.023204552 -0.005631884 0.09011832 -0.078034654
-0.018554894 0.027253304 0.0049185306 0.055449296 -0.056510787 0.0027925568 -0.012017373 0.03932914
0.037872244 0.012558563 0.040387597 -0.14749366 0.033480592 3.771499e-05 -0.008664296 -0.01329601
0.04609352 -2.6433603e-05 0.015016737 -0.0501713 -1.8748236e-05 0.07806486 0.06371114 0.05457417
0.012284421 -0.0033406597 0.042569958 4.532787e-05 -0.0077792294 -0.020942906 0.026875908 0.009010914
0.019781183 0.038718104 0.011945021 -0.063857764 0.0224888 -0.0870717 0.008216095 -0.0033463063
0.008911787 -0.030142484 0.016946146 0.02690709 -0.020897826 -0.00826557 0.016584909 0.03487021
0.03468906 0.0055878405 -0.010202564 0.0026852638 -2.9358718e-05 0.0024162382 0.04727875 0.07445984
0.011610749 -0.1315931 -0.03473397 0.017912624 1.0292854e-05 -1.6016998e-05 -0.014898054 0.05861361

encoder.6.bias f4 [50]
00000000: 2e39 e63b e511 50ba ea50 33bb 5202 46ba
00000010: 6b6b 8f3b 56ca 00b7 85b7 0b3a 343f c8ba
00000020: 5234 813c 50c5 1fbc 8d16 2dbd 9121 0cbb
00000030: 8297 b3ba 2b5c 9abd 60ac d7bb d584 ed3c
00000040: 1bbe 253c 8a25 fabb cd93 c63a cf7f 14bd
00000050: e725 913c 4f8b d33c e57f 333c 3ce1 d53b
00000060: c78d 13bd bb12 14bd 90f8 52bc 4794 0d3b
00000070: 5f99 223b cd0b 86bc 42ae 50bc edb7 d73b
00000080: b15f d03b 8b74 f2bb 4f9e 8d3b 429a 483c
00000090: cf0b 873c 1b3a e9ba 28c4 4c3d 16ef dbbc
000000a0: 6fc6 b8bc 5e21 b0bb 3d6a 34bc 977b 76ba
000000b0: 11f9 113c 6819 003c 4aeb 063d e86a 983c
000000c0: 5807 29bb 1319 543c
0.0070258593 -0.0007937237 -0.002736146 -0.00075534463 0.004376819 -7.6765045e-06 0.0005329776 -0.0015277625
0.015772019 -0.009751633 -0.042257834 -0.0021382312 -0.0013701769 -0.07537111 -0.006581828 0.028994003
0.010116125 -0.0076338695 0.0015150249 -0.0362547 0.017718269 0.025823263 0.010955785 0.006527094
-0.03602388 -0.036150675 -0.012876645 0.0021603273 0.0024810655 -0.016363049 -0.012736859 0.006583205
0.0063590636 -0.007399147 0.0043218504 0.012243809 0.016485123 -0.0017793806 0.049991757 -0.026847403
-0.022555558 -0.0053750714 -0.011011657 -0.00094025716 0.00890948 0.007818557 0.032939233 0.018605664
-0.002579173 0.012945431

decoder.0.weight f4 [90, 50]
00000000: cc34 bfb6 15cb 74b8 216e 1a37 43db a637
00000010: c4dc 2938 a531 2638 0b0d 6ab8 636f 5cb7
00000020: e7ac 9037 3193 8ab8 fce2 1eb7 36cb 1438
00000030: f86e 4037 3191 49b8 57f7 4838 6bed a336
00000040: 5666 46b7 a2d5 0fb8 d2fa ac36 4b70 a0b8
00000050: 28a5 5838 0ffb a2b8 f813 6cb8 db7b aab7
00000060: 9af8 c238 5b53 e137 36dc 9b37 51c0 5f38
00000070: 846f 85b8 6f62 d3b7 d6b3 ef37 9a2b 19b8
00000080: c379 5b38 2830 7038 1a37 8138 910f 03b7
00000090: d422 9eb8 16b0 8338 c197 d837 c2ac 6ab8
000000a0: cd24 9338 4011 ffb7 3149 6db6 3f34 1e38
000000b0: f7ed 5835 effd 3c38 ff97 62b8 793f 8b38
000000c0: 977b 48b7 77bb 0fb8 979f 293d 3f50 923d
000000d0: bcf8 183e caf4 8f3d d82c 9dbd a4d5 1bbe
000000e0: 5d2f 50be 6766 0c3e f3b3 77bb 3fdc ab3b
000000f0: ae9e a6bc f077 0dbe 3fff 7bbd 703e a2be
00000100: 9843 c7bd db3c b73d 0bb0 ac3d 3ad7 1d3d
00000110: 7a8f 653d 0991 973e 353f ec3c 8edf 973b
00000120: 3dd9 043d cbd7 98bc 6645 983c d5f7 203e
00000130: 11f7 58bd 8f0b f63d 6753 afbd f6b7 a23c
00000140: 1927 0e3d 2294 8dbd 7279 9cbe e7a6 133d
00000150: 9681 a43c 40f3 f6bd ecd5 233c 682f 8dbd
00000160: 48df c23d 727f 8dbe 1088 213d 75cb dabc
00000170: 2024 653e bc3d 363e 2343 bd3e f120 85bd
00000180: 4645 993e 75f5 d13e fb25 51bc 536d 0b3c
00000190: 3962 c5bd afe7 d03c 5a0a 29bd 3c6f 653d
000001a0: 6039 25bc 3b53 c53d 9bb6 dd3d f8dc 7d3c
000001b0: 70ff 6e3b 7729 87bb 6dc7 e9bd 797f ca3b
000001c0: 8a92 833c 2788 e13d 1a00 2bbd 1038 4cbd
000001d0: 3907 d63d 19b9 0f3e 6286 b0bd 8250 8cbe
000001e0: be1c 283c 1ca5 88ba 9118 6f3e 050d babc
000001f0: cab2 103b 1bb5 27bd e08b a8bd a2de 03bd
00000200: 5bc6 36be cbad 21bd 728b c0bb 5511 4e3d
00000210: f8b6 dfbd 0db3 7abd aab5 dbbd d767 123d
00000220: f49c 97bc a212 863d 3f3c bbbd e0dc 82bb
00000230: 170a d1b9 2e97 13bd 3b96 a4be 6f07 e33b
00000240: a9c8 cd3c 8fde a9bd 99ba 6dbe f0d0 3dbd
00000250: 2b4b a8bd 684d d1bb 04c7 433d d6ec 9f3c
00000260: 40ca 7e3d 0e01 493d 6fdf e8bd 0bd0 473e
00000270: 5fee 15be 4197 9ebd 69c8 b5be 70ee cbbc
00000280: dfe7 c03d b6e7 1f3e 713c b1bd 82c3 82be
00000290: 0627 90bd 0ee7 88be b46e 0cbe f1f7 01be
000002a0: aef2 f43c 09ce babd d069 903c b961 8c39
000002b0: 35b4 19bf e107 1c3d ac50 7f3c c230 cb3c
000002c0: 806a be3d f3aa 223e 6fe5 babd d87c 983e
000002d0: 18ca 30bc cd87 ebbd 0a5d 59be 953a bb3d
000002e0: cce1 1ebd 5f13 b73d 5d33 d73c c003 1ebe
000002f0: 977a 973d da77 22be a8fa 653c 099b 5dbd
00000300: c842 f13d 6e91 b33c 683b 21be 7aa7 e8bd
00000310: d481 0c3d ddb6 933d ed48 343d 65cd 30bd
00000320: 12db 38bd 0f30 17bb 238b 5fbc a545 173e
00000330: 2548 673d be0a 30be f353 52bd d0ad ad3d
00000340: 76d2 003d d603 a93c f555 a83d 7200 a2bd
00000350: d48a 9d3a 20ae 993e 0c75 db3c 184b afbd
00000360: 3f44 263e 0168 553e 0a6c 1ebc 1bfd bebe
00000370: 862e d6bc f73d 0ebd 8189 163c 84bb 94bd
00000380: 4ba4 d43c 7bde 2abe 2494 c4be 9b43 c03a
00000390: 684f a4be e45a e6bd 54a8 e03c e5eb 113d
000003a0: 74cc 92bd e2de 933b 0570 abba 244a 37be
000003b0: 1052 1bbd d916 5fbc ed60 c4bd 75c9 61be
000003c0: 0a74 ec3c f5d7 063d 743e 76be 18b9 bebc
000003d0: bf37 463d 0cfa 89bd f135 9a3e 40fa b03d
000003e0: 61db 553d e8b7 a53c fdb0 00bc b3f6 ba3d
000003f0: 60d9 74bd 5e76 ce3d fbb8 f2bc 0627 0e3f
-5.69839e-06 -5.8363268e-05 9.204757e-06 1.9890844e-05 4.0498344e-05 3.962372e-05 -5.5802095e-05 -1.3138956e-05
1.7246652e-05 -6.607769e-05 -9.470383e-06 3.5475205e-05 1.1469929e-05 -4.8057354e-05 4.791407e-05 4.8854176e-06
-1.1825547e-05 -3.4292818e-05 5.155199e-06 -7.650311e-05 5.1652227e-05 -7.771525e-05 -5.6285382e-05 -2.0323254e-05
9.2969465e-05 2.6860906e-05 1.8579984e-05 5.334645e-05 -6.3627056e-05 -2.5198997e-05 2.8574763e-05 -3.651865e-05
5.232707e-05 5.7265308e-05 6.161463e-05 -7.811833e-06 -7.540514e-05 6.279365e-05 2.5819872e-05 -5.595084e-05
7.016361e-05 -3.0406401e-05 -3.5358355e-06 3.7718793e-05 8.0812555e-07 4.5059187e-05 -5.4024156e-05 6.639859e-05
-1.19497045e-05 -3.4268447e-05 0.041411962 0.07144212 0.14938635 0.07029112 -0.07674569 -0.15218216
-0.20330568 0.13710938 -0.0037796467 0.0052447612 -0.020339336 -0.13815284 -0.06152272 -0.3168826
-0.09729689 0.08947154 0.08432015 0.038535334 0.056045033 0.2960284 0.028838733 0.004634804
0.032433737 -0.018657586 0.01858778 0.1571954 -0.052969996 0.120139234 -0.085608296 0.01986311
0.034705255 -0.0691302 -0.30561405 0.036047842 0.020081323 -0.12058115 0.009999733 -0.06893808
0.09515244 -0.27636296 0.0394364 -0.026708344 0.22377062 0.17796987 0.36965284 -0.06500424
0.29935664 0.4100758 -0.012765403 0.008509952 -0.09637875 0.0255011 -0.041269638 0.056014284
-0.01008448 0.096350156 0.10825845 0.015494578 0.003646817 -0.004124816 -0.114149906 0.0061797467
0.016061086 0.11012297 -0.041748144 -0.049858153 0.10450596 0.14035453 -0.086193815 -0.27405173
0.010260759 -0.0010425183 0.23349215 -0.022711286 0.0022079223 -0.0409442 -0.08229804 -0.03219474
-0.17849104 -0.039472383 -0.005875998 0.050309498 -0.109235704 -0.061205912 -0.10728009 0.03574356
-0.018507458 0.06546523 -0.091423504 -0.0039936155 -0.00039871104 -0.036032848 -0.32145867 0.0069283764
0.025120096 -0.08294403 -0.23215713 -0.046341836 -0.08217462 -0.0063874014 0.047797218 0.019522112
0.0622046 0.04907327 -0.113707416 0.19512956 -0.14641713 -0.07743693 -0.35504463 -0.02489397
0.09419226 0.15615734 -0.086541064 -0.25539786 -0.07038693 -0.2673878 -0.13714105 -0.12692238
0.029900875 -0.09121329 0.01762858 0.0002677569 -0.600406 0.03809345 0.0155831985 0.024803523
0.09297657 0.15885524 -0.09125792 0.29782748 -0.01079037 -0.11500511 -0.21226898 0.09142033
-0.038789555 0.089392416 0.02626961 -0.15431118 0.07396429 -0.15866032 0.014036812 -0.05410293
0.11780316 0.021919932 -0.15745318 -0.113600686 0.0343035 0.07212613 0.04401486 -0.04316463
-0.045130797 -0.0023069417 -0.013644013 0.14772661 0.056465287 -0.17191598 -0.05134959 0.08480418
0.03145071 0.020631712 0.0821952 -0.07910241 0.0012019523 0.3001566 0.02678921 -0.08559245
0.16236971 0.20840456 -0.009669313 -0.3730248 -0.026145231 -0.034727063 0.009188057 -0.07262328
0.025957247 -0.16686432 -0.38394272 0.0014668585 -0.32091832 -0.11247805 0.027424015 0.035625357
-0.071679026 0.0045126537 -0.0013079649 -0.17899376 -0.037920058 -0.013616287 -0.095887996 -0.22049506
0.028863925 0.032920796 -0.24047261 -0.023281619 0.048393007 -0.06737146 0.3011928 0.086414814
0.05221117 0.020229295 -0.007854697 0.091290854 -0.059777617 0.100811705 -0.029629221 0.55528295

decoder.0.bias f4 [90]
00000000: a1f4 a4b7 0278 e6bd def8 67bd a73e a6bc
00000010: e313 913e 18c7 cd3c 9d18 07bd 0fee 7fbe
00000020: 938d 613d dd28 fc3c 01ce 193d 574f 003d
00000030: bfe0 e13d bfa9 4d3d 0683 213e e82b 863d
00000040: 489c 7f3c 1547 2d3d 1a52 023d 4a12 6b3d
00000050: 3ce2 3fb8 1a1c 3e3d 0584 9e3d 3e32 6cb8
00000060: a5e8 423d 309f 6bb8 ddea 88be 3690 833d
00000070: 67bc 133e 2f3a 8d3d 7739 523d d20c 54be
00000080: 4f5d 2f3d 7e68 a63d 0adf 28bd 9744 a8bc
00000090: ca8c f63c 3999 fa3c 13e7 3e3c 89e2 773d
000000a0: 443d 103d d1e2 883d 8a3a c03a ff2c c73c
000000b0: 828d 763d 4a71 c8bd 8966 90bd 7683 2a3e
000000c0: be19 bc3d 0aa6 a13c 6917 993c 8203 98bc
000000d0: 81d9 bf3c d199 933d 6b80 b43d 8415 9fbc
000000e0: 2a4b 213e 62cd 833d 161c 403d dcfd 3e3d
000000f0: 23de 8dbe 67e9 70bf e942 103d 3f97 e13d
00000100: 2c79 d736 bbaa 353d a468 373d 27cb 1a3d
00000110: b917 4a3d be61 b53d 78d7 6a3d 2575 b73d
00000120: 88d0 383c 4f5a 813b 10fa 373d cb42 7db9
00000130: c04d 1a3d f2e0 543d 0d48 893d f848 ec3c
00000140: 79de 5abd 2508 22bf 70af c73d fe5f 823d
00000150: 6925 f53d 55f4 193d 7a3d 8e3d f16e 33b8
00000160: da1c 363d 453a 073d
-1.9664238e-05 -0.112533584 -0.056633823 -0.020293547 0.28335485 0.02511935 -0.032982457 -0.24993156
0.055066656 0.030781204 0.037549976 0.031325664 0.11029195 0.05021071 0.15772638 0.06551343
0.015601225 0.042304117 0.03181658 0.05739049 -4.5748646e-05 0.04641352 0.077400245 -5.6313576e-05
0.04758515 -5.617662e-05 -0.26741686 0.064239904 0.14427339 0.06895863 0.051324334 -0.20708016
0.042813595 0.08125399 -0.04122833 -0.020540519 0.03009643 0.03059064 0.011651772 0.060518775
0.035214677 0.06683887 0.0014665884 0.024313448 0.060193546 -0.09787233 -0.07050807 0.16651711
0.091845974 0.019732494 0.01868792 -0.01855636 0.023419144 0.072070725 0.08813556 -0.01941944
0.15751329 0.06435658 0.046901785 0.046628818 -0.2770854 -0.94106144 0.03522006 0.11015176
6.4216056e-06 0.044352274 0.044777527 0.037791397 0.04933903 0.088565335 0.057334393 0.089578904
0.0112801865 0.003947533 0.044916213 -0.00024152843 0.037671804 0.051972337 0.06703196 0.028843388
-0.053434823 -0.6329368 0.09750259 0.06365965 0.11970026 0.03758653 0.069453195 -4.2780248e-05
0.04446111 0.033014555
